Model Summary:

| Layer (type)         | Output Shape     | Param #  | Connected to          |
|----------------------|------------------|----------|-----------------------|
| word_embedding       | (None, 50)       | 0        | -                     |
| (InputLayer)         |                  |          |                       |
|----------------------|------------------|----------|-----------------------|
| char_embedding       | (None, 30)       | 0        | -                     |
| (InputLayer)         |                  |          |                       |
|----------------------|------------------|----------|-----------------------|
| stats_features       | (None, 10)       | 0        | -                     |
| (InputLayer)         |                  |          |                       |
|----------------------|------------------|----------|-----------------------|
| dense_177 (Dense)    | (None, 128)      | 6,528    | word_embedding[0][0]  |
|----------------------|------------------|----------|-----------------------|
| dense_178 (Dense)    | (None, 128)      | 3,968    | char_embedding[0][0]  |
|----------------------|------------------|----------|-----------------------|
| dense_179 (Dense)    | (None, 128)      | 1,408    | stats_features[0][0]  |
|----------------------|------------------|----------|-----------------------|
| lambda_27 (Lambda)   | (None, 3, 128)   | 0        | dense_177[0][0],      |
|                      |                  |          | dense_178[0][0],      |
|                      |                  |          | dense_179[0][0]       |
|----------------------|------------------|----------|-----------------------|
| attention_fusion     | (None, 128)      | 0        | lambda_27[0][0]       |
| (Lambda)             |                  |          |                       |
|----------------------|------------------|----------|-----------------------|
| dense_181 (Dense)    | (None, 64)       | 8,256    | attention_fusion[0][0]|
|----------------------|------------------|----------|-----------------------|
| dropout_27           | (None, 64)       | 0        | dense_181[0][0]       |
| (Dropout)            |                  |          |                       |
|----------------------|------------------|----------|-----------------------|
| dense_182 (Dense)    | (None, 2)        | 130      | dropout_27[0][0]      |
|----------------------|------------------|----------|-----------------------|

**Total params**: 20,290 (79.26 KB)  
**Trainable params**: 20,290 (79.26 KB)  
**Non-trainable params**: 0 (0.00 B)

---

**Training Log:**

- **Epoch 1/100**  
  22/22 ━━━━━━━━━━━━━━━━━━━━ 3s 20ms/step - accuracy: 0.5058 - loss: 0.5451 - val_accuracy: 0.8933 - val_loss: 0.3566

- **Epoch 2/100**  
…
