# Model Summary

| Layer (type)         | Output Shape      | Param #  | Connected to         |
| :------------------- | :---------------- | :------- | :------------------- |
| word_embedding        | (None, 100)        | 0        | -                     |
| (InputLayer)          |                    |          |                       |
| char_embedding        | (None, 24)         | 0        | -                     |
| (InputLayer)          |                    |          |                       |
| stats_features        | (None, 4)          | 0        | -                     |
| (InputLayer)          |                    |          |                       |
| dense_213 (Dense)      | (None, 128)        | 12,928   | word_embedding[0][0]  |
| dense_214 (Dense)      | (None, 128)        | 3,200    | char_embedding[0][0]  |
| dense_215 (Dense)      | (None, 128)        | 640      | stats_features[0][0]  |
| lambda_33 (Lambda)     | (None, 3, 128)     | 0        | dense_213, dense_214, dense_215 |
| attention_fusion (Lambda) | (None, 128)    | 0        | lambda_33[0][0]       |
| dense_217 (Dense)      | (None, 64)         | 8,256    | attention_fusion[0][0]|
| dropout_33 (Dropout)   | (None, 64)         | 0        | dense_217[0][0]       |
| dense_218 (Dense)      | (None, 2)          | 130      | dropout_33[0][0]      |

**Total params**: 25,154 (98.26 KB)  
**Trainable params**: 25,154 (98.26 KB)  
**Non-trainable params**: 0 (0.00 B)
---

**Training Log:**

- **Epoch 1/100**  
  22/22 ━━━━━━━━━━━━━━━━━━━━ 3s 20ms/step - accuracy: 0.5058 - loss: 0.5451 - val_accuracy: 0.8933 - val_loss: 0.3566

- **Epoch 2/100**  
  22/22 ━━━━━━━━━━━━━━━━━━━━ 0s 8ms/step - accuracy: 0.9660 - loss: 0.2936 - val_accuracy: 1.0000 - val_loss: 0.0843
…
